Neural Network Tools for STM32AI v1.6.0 (STM.ai v7.1.0-RC3)
Created date          : 2022-05-31 22:34:43
Parameters            : generate --name two_three -m D:/2_3.tflite --type tflite --compression 1 --verbosity 1 --workspace C:\Users\DOUKAN~1\AppData\Local\Temp\mxAI_workspace46104107648910017102878895355970606 --output C:\Users\Doðukan\.stm32cubemx\two_three_output

Exec/report summary (generate)
------------------------------------------------------------------------------------------------------------------------
model file            : D:\2_3.tflite
type                  : tflite
c_name                : two_three
compression           : None
workspace dir         : C:\Users\DOUKAN~1\AppData\Local\Temp\mxAI_workspace46104107648910017102878895355970606
output dir            : C:\Users\Doðukan\.stm32cubemx\two_three_output
model_name            : node_2_3
model_hash            : 5344f830fb25904fb3f368b1e04b5229
input 1/1             : 'serving_default_conv2d_4_input0'
                        1392 items, 5.44 KiB, ai_float, float, (1,87,16,1), domain:user/
output 1/1            : 'nl_11'
                        2 items, 8 B, ai_float, float, (1,1,1,2), domain:user/
params #              : 5,714 items (22.32 KiB)
macc                  : 119,648
weights (ro)          : 22,856 B (22.32 KiB) (1 segment)
activations (rw)      : 6,656 B (6.50 KiB) (1 segment)
ram (total)           : 12,232 B (11.95 KiB) = 6,656 + 5,568 + 8

Model name - node_2_3 ['serving_default_conv2d_4_input0'] ['nl_11']
-------------------------------------------------------------------------------------------------------------------------------------------------------------------------------------------------------------------------------------
id   layer (type)                                                         oshape          param/size     macc     connected to                                           |   c_size          c_macc            c_type               
-------------------------------------------------------------------------------------------------------------------------------------------------------------------------------------------------------------------------------------
0    serving_default_conv2d_4_input0 (Input)                              (1,87,16,1)                                                                                    |                                    
     conv2d_0 (Conv2D)                                                    (1,44,8,16)     160/640        50,704   serving_default_conv2d_4_input0                        |                   +11,264(+22.2%)   optimized_conv2d()[0]
     nl_0_nl (Nonlinearity)                                               (1,44,8,16)                    5,632    conv2d_0                                               |                   -5,632(-100.0%)  
-------------------------------------------------------------------------------------------------------------------------------------------------------------------------------------------------------------------------------------
1    pool_1 (Pool)                                                        (1,22,4,16)                    5,632    nl_0_nl                                                |                   -5,632(-100.0%)  
-------------------------------------------------------------------------------------------------------------------------------------------------------------------------------------------------------------------------------------
2    sequential_2_batch_normalization_4_FusedBatchNormV3 (Placeholder)    (None,1,1,16)   16/64                                                                          |   -64(-100.0%)                     
     eltwise_2 (Eltwise)                                                  (1,22,4,16)                    1,408    pool_1                                                 |                   -1,408(-100.0%)  
                                                                                                                  sequential_2_batch_normalization_4_FusedBatchNormV3    |  
-------------------------------------------------------------------------------------------------------------------------------------------------------------------------------------------------------------------------------------
3    sequential_2_batch_normalization_4_FusedBatchNormV31 (Placeholder)   (None,1,1,16)   16/64                                                                          |   -64(-100.0%)                     
     eltwise_3 (Eltwise)                                                  (1,22,4,16)                    1,408    eltwise_2                                              |   +128(+100.0%)   +1,408(+100.0%)   bn()[1]              
                                                                                                                  sequential_2_batch_normalization_4_FusedBatchNormV31   |  
-------------------------------------------------------------------------------------------------------------------------------------------------------------------------------------------------------------------------------------
4    conv2d_4 (Conv2D)                                                    (1,11,2,16)     2,320/9,280    50,704   eltwise_3                                              |                   +736(+1.5%)       optimized_conv2d()[2]
     nl_4_nl (Nonlinearity)                                               (1,11,2,16)                    352      conv2d_4                                               |                   -352(-100.0%)    
-------------------------------------------------------------------------------------------------------------------------------------------------------------------------------------------------------------------------------------
5    pool_5 (Pool)                                                        (1,6,1,16)                     384      nl_4_nl                                                |                   -384(-100.0%)    
-------------------------------------------------------------------------------------------------------------------------------------------------------------------------------------------------------------------------------------
6    sequential_2_batch_normalization_5_FusedBatchNormV3 (Placeholder)    (None,1,1,16)   16/64                                                                          |   -64(-100.0%)                     
     eltwise_6 (Eltwise)                                                  (1,6,1,16)                     96       pool_5                                                 |                   -96(-100.0%)     
                                                                                                                  sequential_2_batch_normalization_5_FusedBatchNormV3    |  
-------------------------------------------------------------------------------------------------------------------------------------------------------------------------------------------------------------------------------------
7    sequential_2_batch_normalization_5_FusedBatchNormV31 (Placeholder)   (None,1,1,16)   16/64                                                                          |   -64(-100.0%)                     
     eltwise_7 (Eltwise)                                                  (1,6,1,16)                     96       eltwise_6                                              |   +128(+100.0%)   +96(+100.0%)      bn()[3]              
                                                                                                                  sequential_2_batch_normalization_5_FusedBatchNormV31   |  
-------------------------------------------------------------------------------------------------------------------------------------------------------------------------------------------------------------------------------------
8    reshape_8 (Reshape)                                                  (1,1,1,96)                              eltwise_7                                              |                                    
-------------------------------------------------------------------------------------------------------------------------------------------------------------------------------------------------------------------------------------
9    dense_9 (Dense)                                                      (1,1,1,32)      3,104/12,416   3,104    reshape_8                                              |                                     dense()[4]           
     nl_9_nl (Nonlinearity)                                               (1,1,1,32)                     32       dense_9                                                |                                     nl()[5]              
-------------------------------------------------------------------------------------------------------------------------------------------------------------------------------------------------------------------------------------
10   dense_10 (Dense)                                                     (1,1,1,2)       66/264         66       nl_9_nl                                                |                                     dense()[6]           
-------------------------------------------------------------------------------------------------------------------------------------------------------------------------------------------------------------------------------------
11   nl_11 (Nonlinearity)                                                 (1,1,1,2)                      30       dense_10                                               |                                     nl()/o[7]            
-------------------------------------------------------------------------------------------------------------------------------------------------------------------------------------------------------------------------------------
model/c-model: macc=119,648/119,648  weights=22,856/22,856  activations=--/6,656 io=--/5,576



Generated C-graph summary
------------------------------------------------------------------------------------------------------------------------
model name            : node_2_3
c-name                : two_three
c-node #              : 8
c-array #             : 23
activations size      : 6656 (1 segments)
weights size          : 22856 (1 segments)
macc                  : 119648
inputs                : ['serving_default_conv2d_4_input0_output']
outputs               : ['nl_11_output']

C-Arrays (23)
---------------------------------------------------------------------------------------------------------------------
c_id   name (*_array)                           item/size    domain/mem-pool           c-type        fmt     comment
---------------------------------------------------------------------------------------------------------------------
0      serving_default_conv2d_4_input0_output   1392/5568    user/                     float         float   /input 
1      conv2d_0_output                          1408/5632    activations/**default**   float         float          
2      eltwise_3_output                         1408/5632    activations/**default**   float         float          
3      conv2d_4_output                          96/384       activations/**default**   float         float          
4      eltwise_7_output                         96/384       activations/**default**   float         float          
5      dense_9_output                           32/128       activations/**default**   float         float          
6      nl_9_nl_output                           32/128       activations/**default**   float         float          
7      dense_10_output                          2/8          activations/**default**   float         float          
8      nl_11_output                             2/8          user/                     float         float   /output
9      conv2d_0_weights                         144/576      weights/                  const float   float          
10     conv2d_0_bias                            16/64        weights/                  const float   float          
11     eltwise_3_scale                          16/64        weights/                  const float   float          
12     eltwise_3_bias                           16/64        weights/                  const float   float          
13     conv2d_4_weights                         2304/9216    weights/                  const float   float          
14     conv2d_4_bias                            16/64        weights/                  const float   float          
15     eltwise_7_scale                          16/64        weights/                  const float   float          
16     eltwise_7_bias                           16/64        weights/                  const float   float          
17     dense_9_weights                          3072/12288   weights/                  const float   float          
18     dense_9_bias                             32/128       weights/                  const float   float          
19     dense_10_weights                         64/256       weights/                  const float   float          
20     dense_10_bias                            2/8          weights/                  const float   float          
21     conv2d_0_scratch0                        256/1024     activations/**default**   float         float          
22     conv2d_4_scratch0                        64/256       activations/**default**   float         float          
---------------------------------------------------------------------------------------------------------------------

C-Layers (8)
-----------------------------------------------------------------------------------------------------------------------------
c_id   name (*_layer)   id   layer_type         macc    rom     tensors                                     shape (array id)
-----------------------------------------------------------------------------------------------------------------------------
0      conv2d_0         1    optimized_conv2d   61968   640     I: serving_default_conv2d_4_input0_output   (1,87,16,1) (0) 
                                                                S: conv2d_0_scratch0                                        
                                                                W: conv2d_0_weights                         (1,16,3,3) (9)  
                                                                W: conv2d_0_bias                            (1,1,1,16) (10) 
                                                                O: conv2d_0_output                          (1,22,4,16) (1) 
-----------------------------------------------------------------------------------------------------------------------------
1      eltwise_3        3    bn                 2816    128     I: conv2d_0_output                          (1,22,4,16) (1) 
                                                                W: eltwise_3_scale                          (1,1,1,16) (11) 
                                                                W: eltwise_3_bias                           (1,1,1,16) (12) 
                                                                O: eltwise_3_output                         (1,22,4,16) (2) 
-----------------------------------------------------------------------------------------------------------------------------
2      conv2d_4         5    optimized_conv2d   51440   9280    I: eltwise_3_output                         (1,22,4,16) (2) 
                                                                S: conv2d_4_scratch0                                        
                                                                W: conv2d_4_weights                         (16,16,3,3) (13)
                                                                W: conv2d_4_bias                            (1,1,1,16) (14) 
                                                                O: conv2d_4_output                          (1,6,1,16) (3)  
-----------------------------------------------------------------------------------------------------------------------------
3      eltwise_7        7    bn                 192     128     I: conv2d_4_output                          (1,6,1,16) (3)  
                                                                W: eltwise_7_scale                          (1,1,1,16) (15) 
                                                                W: eltwise_7_bias                           (1,1,1,16) (16) 
                                                                O: eltwise_7_output                         (1,6,1,16) (4)  
-----------------------------------------------------------------------------------------------------------------------------
4      dense_9          9    dense              3104    12416   I: eltwise_7_output0                        (1,1,1,96) (4)  
                                                                W: dense_9_weights                          (96,1,1,32) (17)
                                                                W: dense_9_bias                             (1,1,1,32) (18) 
                                                                O: dense_9_output                           (1,1,1,32) (5)  
-----------------------------------------------------------------------------------------------------------------------------
5      nl_9_nl          9    nl                 32      0       I: dense_9_output                           (1,1,1,32) (5)  
                                                                O: nl_9_nl_output                           (1,1,1,32) (6)  
-----------------------------------------------------------------------------------------------------------------------------
6      dense_10         10   dense              66      264     I: nl_9_nl_output                           (1,1,1,32) (6)  
                                                                W: dense_10_weights                         (32,1,1,2) (19) 
                                                                W: dense_10_bias                            (1,1,1,2) (20)  
                                                                O: dense_10_output                          (1,1,1,2) (7)   
-----------------------------------------------------------------------------------------------------------------------------
7      nl_11            11   nl                 30      0       I: dense_10_output                          (1,1,1,2) (7)   
                                                                O: nl_11_output                             (1,1,1,2) (8)   
-----------------------------------------------------------------------------------------------------------------------------



Complexity report per layer - macc=119,648 weights=22,856 act=6,656 ram_io=5,576
--------------------------------------------------------------------------
id   name        c_macc                    c_rom                     c_id
--------------------------------------------------------------------------
0    conv2d_0    ||||||||||||||||  51.8%   |                  2.8%   [0] 
3    eltwise_3   |                  2.4%   |                  0.6%   [1] 
4    conv2d_4    |||||||||||||     43.0%   ||||||||||||      40.6%   [2] 
7    eltwise_7   |                  0.2%   |                  0.6%   [3] 
9    dense_9     |                  2.6%   ||||||||||||||||  54.3%   [4] 
9    nl_9_nl     |                  0.0%   |                  0.0%   [5] 
10   dense_10    |                  0.1%   |                  1.2%   [6] 
11   nl_11       |                  0.0%   |                  0.0%   [7] 

Generated files (5)
---------------------------------------------------------------------------
C:\Users\Doðukan\.stm32cubemx\two_three_output\two_three_config.h
C:\Users\Doðukan\.stm32cubemx\two_three_output\two_three.h
C:\Users\Doðukan\.stm32cubemx\two_three_output\two_three.c
C:\Users\Doðukan\.stm32cubemx\two_three_output\two_three_data.h
C:\Users\Doðukan\.stm32cubemx\two_three_output\two_three_data.c
